…
iplr=0.3, mosaic=0.3, mixup=0.04, copy_paste=0.0\n",
      "\u001b[34m\u001b[1mComet: \u001b[0mrun 'pip install comet_ml' to automatically track and visualize YOLOv5 🚀 runs in Comet\n",
      "\u001b[34m\u001b[1mTensorBoard: \u001b[0mStart with 'tensorboard --logdir yolov5/runs/train', view at http://localhost:6006/\n",
      "Overriding model.yaml nc=80 with nc=1\n",
      "Overriding model.yaml anchors with anchors=3\n",
      "\n",
      "                 from  n    params  module                                  arguments                     \n",
      "  0                -1  1      5280  models.common.Conv                      [3, 48, 6, 2, 2]              \n",
      "  1                -1  1     41664  models.common.Conv                      [48, 96, 3, 2]                \n",
      "  2                -1  2     65280  models.common.C3                        [96, 96, 2]                   \n",
      "  3                -1  1    166272  models.common.Conv                      [96, 192, 3, 2]               \n",
      "  4                -1  4    444672  models.common.C3                        [192, 192, 4]                 \n",
      "  5                -1  1    664320  models.common.Conv                      [192, 384, 3, 2]              \n",
      "  6                -1  6   2512896  models.common.C3                        [384, 384, 6]                 \n",
      "  7                -1  1   2655744  models.common.Conv                      [384, 768, 3, 2]              \n",
      "  8                -1  2   4134912  models.common.C3                        [768, 768, 2]                 \n",
      "  9                -1  1   1476864  models.common.SPPF                      [768, 768, 5]                 \n",
      " 10                -1  1    295680  models.common.Conv                      [768, 384, 1, 1]              \n",
      " 11                -1  1         0  torch.nn.modules.upsampling.Upsample    [None, 2, 'nearest']          \n",
      " 12           [-1, 6]  1         0  models.common.Concat                    [1]                           \n",
      " 13                -1  2   1182720  models.common.C3                        [768, 384, 2, False]          \n",
      " 14                -1  1     74112  models.common.Conv                      [384, 192, 1, 1]              \n",
      " 15                -1  1         0  torch.nn.modules.upsampling.Upsample    [None, 2, 'nearest']          \n",
      " 16           [-1, 4]  1         0  models.common.Concat                    [1]                           \n",
      " 17                -1  2    296448  models.common.C3                        [384, 192, 2, False]          \n",
      " 18                -1  1    332160  models.common.Conv                      [192, 192, 3, 2]              \n",
      " 19          [-1, 14]  1         0  models.common.Concat                    [1]                           \n",
      " 20                -1  2   1035264  models.common.C3                        [384, 384, 2, False]          \n",
      " 21                -1  1   1327872  models.common.Conv                      [384, 384, 3, 2]              \n",
      " 22          [-1, 10]  1         0  models.common.Concat                    [1]                           \n",
      " 23                -1  2   4134912  models.common.C3                        [768, 768, 2, False]          \n",
      " 24      [17, 20, 23]  1     24246  models.yolo.Detect                      [1, [[0, 1, 2, 3, 4, 5], [0, 1, 2, 3, 4, 5], [0, 1, 2, 3, 4, 5]], [192, 384, 768]]\n",
      "Model summary: 291 layers, 20871318 parameters, 20871318 gradients, 48.2 GFLOPs\n",
      "\n",
      "Transferred 474/481 items from yolov5m.pt\n",
      "\u001b[34m\u001b[1mAMP: \u001b[0mchecks passed ✅\n",
…
